{
  "storage" : "model.espresso.weights",
  "properties" : {

  },
  "format_version" : 200,
  "layers" : [
    {
      "pad_value" : 0,
      "average_count_exclude_padding" : 1,
      "top_shape_style" : 0,
      "avg_or_max" : 0,
      "stride_x" : 2,
      "pad_mode" : 2,
      "stride_y" : 2,
      "pad_t" : 0,
      "weights" : {

      },
      "size_y" : 2,
      "type" : "pool",
      "pad_r" : 0,
      "pad_b" : 0,
      "size_x" : 2,
      "pad_fill_mode" : 0,
      "bottom" : "input1",
      "pad_l" : 0,
      "name" : "input2x",
      "top" : "input2x_output"
    },
    {
      "pad_r" : 0,
      "fused_relu" : 1,
      "fused_tanh" : 0,
      "pad_fill_mode" : 0,
      "pad_b" : 0,
      "pad_l" : 0,
      "top" : "base_1x_relu_output_relu",
      "blob_weights" : 3,
      "K" : 1,
      "blob_biases" : 1,
      "stride_x" : 2,
      "name" : "base_1x_conv",
      "has_batch_norm" : 0,
      "type" : "convolution",
      "n_groups" : 1,
      "pad_t" : 0,
      "stride_y" : 2,
      "has_biases" : 1,
      "C" : 8,
      "bottom" : "input1",
      "weights" : {

      },
      "Nx" : 3,
      "pad_mode" : 1,
      "pad_value" : 0,
      "Ny" : 3,
      "n_parallel" : 1
    },
    {
      "pad_r" : 0,
      "fused_relu" : 1,
      "fused_tanh" : 0,
      "pad_fill_mode" : 0,
      "pad_b" : 0,
      "pad_l" : 0,
      "top" : "base_2x_relu_output_relu",
      "blob_weights" : 7,
      "K" : 1,
      "blob_biases" : 5,
      "stride_x" : 2,
      "name" : "base_2x_conv",
      "has_batch_norm" : 0,
      "type" : "convolution",
      "n_groups" : 1,
      "pad_t" : 0,
      "stride_y" : 2,
      "has_biases" : 1,
      "C" : 8,
      "bottom" : "input2x_output",
      "weights" : {

      },
      "Nx" : 3,
      "pad_mode" : 1,
      "pad_value" : 0,
      "Ny" : 3,
      "n_parallel" : 1
    },
    {
      "pad_value" : 0,
      "average_count_exclude_padding" : 1,
      "top_shape_style" : 0,
      "avg_or_max" : 0,
      "stride_x" : 2,
      "pad_mode" : 2,
      "stride_y" : 2,
      "pad_t" : 0,
      "weights" : {

      },
      "size_y" : 2,
      "type" : "pool",
      "pad_r" : 0,
      "pad_b" : 0,
      "size_x" : 2,
      "pad_fill_mode" : 0,
      "bottom" : "input2x_output",
      "pad_l" : 0,
      "name" : "input4x",
      "top" : "input4x_output"
    },
    {
      "pad_r" : 0,
      "fused_relu" : 1,
      "fused_tanh" : 0,
      "pad_fill_mode" : 0,
      "pad_b" : 0,
      "pad_l" : 0,
      "top" : "base_4x_relu_output_relu",
      "blob_weights" : 11,
      "K" : 1,
      "blob_biases" : 9,
      "stride_x" : 2,
      "name" : "base_4x_conv",
      "has_batch_norm" : 0,
      "type" : "convolution",
      "n_groups" : 1,
      "pad_t" : 0,
      "stride_y" : 2,
      "has_biases" : 1,
      "C" : 8,
      "bottom" : "input4x_output",
      "weights" : {

      },
      "Nx" : 3,
      "pad_mode" : 1,
      "pad_value" : 0,
      "Ny" : 3,
      "n_parallel" : 1
    },
    {
      "alpha" : -1,
      "bottom" : "base_1x_relu_output_relu",
      "weights" : {

      },
      "mode" : 6,
      "top" : "base_1x_relu_output_relu_neg",
      "type" : "activation",
      "name" : "base_1x_relu__neg__",
      "beta" : 0
    },
    {
      "alpha" : -6,
      "bottom" : "base_1x_relu_output_relu_neg",
      "operation" : 25,
      "weights" : {

      },
      "fused_relu" : 0,
      "top" : "base_1x_relu_output_relu_clip",
      "type" : "elementwise",
      "name" : "base_1x_relu__clip__",
      "beta" : 0
    },
    {
      "alpha" : -1,
      "bottom" : "base_1x_relu_output_relu_clip",
      "weights" : {

      },
      "mode" : 6,
      "top" : "base_1x_relu_output",
      "type" : "activation",
      "name" : "base_1x_relu_neg2",
      "beta" : 0
    },
    {
      "alpha" : -1,
      "bottom" : "base_2x_relu_output_relu",
      "weights" : {

      },
      "mode" : 6,
      "top" : "base_2x_relu_output_relu_neg",
      "type" : "activation",
      "name" : "base_2x_relu__neg__",
      "beta" : 0
    },
    {
      "alpha" : -6,
      "bottom" : "base_2x_relu_output_relu_neg",
      "operation" : 25,
      "weights" : {

      },
      "fused_relu" : 0,
      "top" : "base_2x_relu_output_relu_clip",
      "type" : "elementwise",
      "name" : "base_2x_relu__clip__",
      "beta" : 0
    },
    {
      "alpha" : -1,
      "bottom" : "base_2x_relu_output_relu_clip",
      "weights" : {

      },
      "mode" : 6,
      "top" : "base_2x_relu_output",
      "type" : "activation",
      "name" : "base_2x_relu_neg2",
      "beta" : 0
    },
    {
      "pad_value" : 0,
      "average_count_exclude_padding" : 1,
      "top_shape_style" : 0,
      "avg_or_max" : 1,
      "stride_x" : 4,
      "pad_mode" : 2,
      "stride_y" : 4,
      "pad_t" : 0,
      "weights" : {

      },
      "size_y" : 4,
      "type" : "pool",
      "pad_r" : 0,
      "pad_b" : 0,
      "size_x" : 4,
      "pad_fill_mode" : 0,
      "bottom" : "base_1x_relu_output",
      "pad_l" : 0,
      "name" : "base_1x_pool",
      "top" : "base_1x_pool_output"
    },
    {
      "pad_value" : 0,
      "average_count_exclude_padding" : 1,
      "top_shape_style" : 0,
      "avg_or_max" : 1,
      "stride_x" : 2,
      "pad_mode" : 2,
      "stride_y" : 2,
      "pad_t" : 0,
      "weights" : {

      },
      "size_y" : 2,
      "type" : "pool",
      "pad_r" : 0,
      "pad_b" : 0,
      "size_x" : 2,
      "pad_fill_mode" : 0,
      "bottom" : "base_2x_relu_output",
      "pad_l" : 0,
      "name" : "base_2x_pool",
      "top" : "base_2x_pool_output"
    },
    {
      "alpha" : -1,
      "bottom" : "base_4x_relu_output_relu",
      "weights" : {

      },
      "mode" : 6,
      "top" : "base_4x_relu_output_relu_neg",
      "type" : "activation",
      "name" : "base_4x_relu__neg__",
      "beta" : 0
    },
    {
      "alpha" : -6,
      "bottom" : "base_4x_relu_output_relu_neg",
      "operation" : 25,
      "weights" : {

      },
      "fused_relu" : 0,
      "top" : "base_4x_relu_output_relu_clip",
      "type" : "elementwise",
      "name" : "base_4x_relu__clip__",
      "beta" : 0
    },
    {
      "alpha" : -1,
      "bottom" : "base_4x_relu_output_relu_clip",
      "weights" : {

      },
      "mode" : 6,
      "top" : "base_4x_relu_output",
      "type" : "activation",
      "name" : "base_4x_relu_neg2",
      "beta" : 0
    },
    {
      "weights" : {

      },
      "top" : "base_concat_output",
      "type" : "concat",
      "name" : "base_concat",
      "bottom" : "base_1x_pool_output,base_2x_pool_output,base_4x_relu_output"
    },
    {
      "pad_r" : 0,
      "fused_relu" : 1,
      "fused_tanh" : 0,
      "pad_fill_mode" : 0,
      "pad_b" : 0,
      "pad_l" : 0,
      "top" : "base_pw_relu_output_relu",
      "blob_weights" : 15,
      "K" : 24,
      "blob_biases" : 13,
      "name" : "base_pw_conv",
      "has_batch_norm" : 0,
      "type" : "convolution",
      "n_groups" : 1,
      "pad_t" : 0,
      "has_biases" : 1,
      "C" : 16,
      "bottom" : "base_concat_output",
      "weights" : {

      },
      "pad_mode" : 0,
      "Nx" : 1,
      "pad_value" : 0,
      "Ny" : 1,
      "n_parallel" : 1
    },
    {
      "alpha" : -1,
      "bottom" : "base_pw_relu_output_relu",
      "weights" : {

      },
      "mode" : 6,
      "top" : "base_pw_relu_output_relu_neg",
      "type" : "activation",
      "name" : "base_pw_relu__neg__",
      "beta" : 0
    },
    {
      "alpha" : -6,
      "bottom" : "base_pw_relu_output_relu_neg",
      "operation" : 25,
      "weights" : {

      },
      "fused_relu" : 0,
      "top" : "base_pw_relu_output_relu_clip",
      "type" : "elementwise",
      "name" : "base_pw_relu__clip__",
      "beta" : 0
    },
    {
      "alpha" : -1,
      "bottom" : "base_pw_relu_output_relu_clip",
      "weights" : {

      },
      "mode" : 6,
      "top" : "base_pw_relu_output",
      "type" : "activation",
      "name" : "base_pw_relu_neg2",
      "beta" : 0
    },
    {
      "pad_r" : 0,
      "fused_relu" : 1,
      "fused_tanh" : 0,
      "pad_fill_mode" : 0,
      "pad_b" : 0,
      "pad_l" : 0,
      "top" : "barcode_expand_pw_relu_output_relu",
      "blob_weights" : 19,
      "K" : 16,
      "blob_biases" : 17,
      "name" : "barcode_expand_pw_conv",
      "has_batch_norm" : 0,
      "type" : "convolution",
      "n_groups" : 1,
      "pad_t" : 0,
      "has_biases" : 1,
      "C" : 32,
      "bottom" : "base_pw_relu_output",
      "weights" : {

      },
      "pad_mode" : 0,
      "Nx" : 1,
      "pad_value" : 0,
      "Ny" : 1,
      "n_parallel" : 1
    },
    {
      "alpha" : -1,
      "bottom" : "barcode_expand_pw_relu_output_relu",
      "weights" : {

      },
      "mode" : 6,
      "top" : "barcode_expand_pw_relu_output_relu_neg",
      "type" : "activation",
      "name" : "barcode_expand_pw_relu__neg__",
      "beta" : 0
    },
    {
      "alpha" : -6,
      "bottom" : "barcode_expand_pw_relu_output_relu_neg",
      "operation" : 25,
      "weights" : {

      },
      "fused_relu" : 0,
      "top" : "barcode_expand_pw_relu_output_relu_clip",
      "type" : "elementwise",
      "name" : "barcode_expand_pw_relu__clip__",
      "beta" : 0
    },
    {
      "alpha" : -1,
      "bottom" : "barcode_expand_pw_relu_output_relu_clip",
      "weights" : {

      },
      "mode" : 6,
      "top" : "barcode_expand_pw_relu_output",
      "type" : "activation",
      "name" : "barcode_expand_pw_relu_neg2",
      "beta" : 0
    },
    {
      "pad_r" : 0,
      "fused_relu" : 1,
      "fused_tanh" : 0,
      "pad_fill_mode" : 0,
      "pad_b" : 0,
      "pad_l" : 0,
      "top" : "barcode_dw_relu_output_relu",
      "blob_weights" : 23,
      "K" : 32,
      "blob_biases" : 21,
      "name" : "barcode_dw_conv",
      "has_batch_norm" : 0,
      "type" : "convolution",
      "n_groups" : 32,
      "pad_t" : 0,
      "has_biases" : 1,
      "C" : 32,
      "bottom" : "barcode_expand_pw_relu_output",
      "weights" : {

      },
      "pad_mode" : 1,
      "Nx" : 3,
      "pad_value" : 0,
      "Ny" : 3,
      "n_parallel" : 1
    },
    {
      "alpha" : -1,
      "bottom" : "barcode_dw_relu_output_relu",
      "weights" : {

      },
      "mode" : 6,
      "top" : "barcode_dw_relu_output_relu_neg",
      "type" : "activation",
      "name" : "barcode_dw_relu__neg__",
      "beta" : 0
    },
    {
      "alpha" : -6,
      "bottom" : "barcode_dw_relu_output_relu_neg",
      "operation" : 25,
      "weights" : {

      },
      "fused_relu" : 0,
      "top" : "barcode_dw_relu_output_relu_clip",
      "type" : "elementwise",
      "name" : "barcode_dw_relu__clip__",
      "beta" : 0
    },
    {
      "alpha" : -1,
      "bottom" : "barcode_dw_relu_output_relu_clip",
      "weights" : {

      },
      "mode" : 6,
      "top" : "barcode_dw_relu_output",
      "type" : "activation",
      "name" : "barcode_dw_relu_neg2",
      "beta" : 0
    },
    {
      "pad_r" : 0,
      "fused_relu" : 1,
      "fused_tanh" : 0,
      "pad_fill_mode" : 0,
      "pad_b" : 0,
      "pad_l" : 0,
      "top" : "barcode_compress_pw_relu_output_relu",
      "blob_weights" : 27,
      "K" : 32,
      "blob_biases" : 25,
      "name" : "barcode_compress_pw_conv",
      "has_batch_norm" : 0,
      "type" : "convolution",
      "n_groups" : 1,
      "pad_t" : 0,
      "has_biases" : 1,
      "C" : 16,
      "bottom" : "barcode_dw_relu_output",
      "weights" : {

      },
      "pad_mode" : 0,
      "Nx" : 1,
      "pad_value" : 0,
      "Ny" : 1,
      "n_parallel" : 1
    },
    {
      "alpha" : -1,
      "bottom" : "barcode_compress_pw_relu_output_relu",
      "weights" : {

      },
      "mode" : 6,
      "top" : "barcode_compress_pw_relu_output_relu_neg",
      "type" : "activation",
      "name" : "barcode_compress_pw_relu__neg__",
      "beta" : 0
    },
    {
      "alpha" : -6,
      "bottom" : "barcode_compress_pw_relu_output_relu_neg",
      "operation" : 25,
      "weights" : {

      },
      "fused_relu" : 0,
      "top" : "barcode_compress_pw_relu_output_relu_clip",
      "type" : "elementwise",
      "name" : "barcode_compress_pw_relu__clip__",
      "beta" : 0
    },
    {
      "alpha" : -1,
      "bottom" : "barcode_compress_pw_relu_output_relu_clip",
      "weights" : {

      },
      "mode" : 6,
      "top" : "barcode_compress_pw_relu_output",
      "type" : "activation",
      "name" : "barcode_compress_pw_relu_neg2",
      "beta" : 0
    },
    {
      "alpha" : 1,
      "bottom" : "base_pw_relu_output,barcode_compress_pw_relu_output",
      "operation" : 0,
      "weights" : {

      },
      "fused_relu" : 0,
      "top" : "barcode_add_output",
      "type" : "elementwise",
      "name" : "barcode_add",
      "beta" : 0
    },
    {
      "pad_r" : 0,
      "pad_fill_mode" : 0,
      "pad_b" : 0,
      "pad_l" : 0,
      "top" : "barcode_se_pool_output",
      "size_x" : 80,
      "is_global" : 1,
      "top_shape_style" : 0,
      "stride_x" : 1,
      "avg_or_max" : 0,
      "average_count_exclude_padding" : 1,
      "type" : "pool",
      "name" : "barcode_se_pool",
      "pad_t" : 0,
      "stride_y" : 1,
      "bottom" : "barcode_add_output",
      "weights" : {

      },
      "pad_mode" : 2,
      "size_y" : 60,
      "pad_value" : 0
    },
    {
      "name" : "barcode_se_reshape",
      "bottom" : "barcode_se_pool_output",
      "dst_n" : 0,
      "mode" : 1,
      "dst_seq" : 1,
      "dst_k" : -1,
      "weights" : {

      },
      "top" : "barcode_se_reshape_output",
      "dst_h" : 1,
      "dst_w" : 1,
      "type" : "reshape"
    },
    {
      "pad_r" : 0,
      "fused_relu" : 1,
      "fused_tanh" : 0,
      "pad_fill_mode" : 0,
      "pad_b" : 0,
      "pad_l" : 0,
      "top" : "barcode_se_dense1_relu_output_relu",
      "blob_weights" : 31,
      "K" : 16,
      "blob_biases" : 29,
      "name" : "barcode_se_dense1",
      "has_batch_norm" : 0,
      "type" : "convolution",
      "n_groups" : 1,
      "pad_t" : 0,
      "has_biases" : 1,
      "C" : 16,
      "bottom" : "barcode_se_reshape_output",
      "weights" : {

      },
      "pad_mode" : 0,
      "Nx" : 1,
      "pad_value" : 0,
      "Ny" : 1,
      "n_parallel" : 1
    },
    {
      "alpha" : -1,
      "bottom" : "barcode_se_dense1_relu_output_relu",
      "weights" : {

      },
      "mode" : 6,
      "top" : "barcode_se_dense1_relu_output_relu_neg",
      "type" : "activation",
      "name" : "barcode_se_dense1_relu__neg__",
      "beta" : 0
    },
    {
      "alpha" : -6,
      "bottom" : "barcode_se_dense1_relu_output_relu_neg",
      "operation" : 25,
      "weights" : {

      },
      "fused_relu" : 0,
      "top" : "barcode_se_dense1_relu_output_relu_clip",
      "type" : "elementwise",
      "name" : "barcode_se_dense1_relu__clip__",
      "beta" : 0
    },
    {
      "alpha" : -1,
      "bottom" : "barcode_se_dense1_relu_output_relu_clip",
      "weights" : {

      },
      "mode" : 6,
      "top" : "barcode_se_dense1_relu_output",
      "type" : "activation",
      "name" : "barcode_se_dense1_relu_neg2",
      "beta" : 0
    },
    {
      "pad_r" : 0,
      "fused_relu" : 0,
      "fused_tanh" : 0,
      "pad_fill_mode" : 0,
      "pad_b" : 0,
      "pad_l" : 0,
      "top" : "barcode_se_dense2_bn_output",
      "blob_weights" : 35,
      "K" : 16,
      "blob_biases" : 33,
      "name" : "barcode_se_dense2",
      "has_batch_norm" : 0,
      "type" : "convolution",
      "n_groups" : 1,
      "pad_t" : 0,
      "has_biases" : 1,
      "C" : 16,
      "bottom" : "barcode_se_dense1_relu_output",
      "weights" : {

      },
      "pad_mode" : 0,
      "Nx" : 1,
      "pad_value" : 0,
      "Ny" : 1,
      "n_parallel" : 1
    },
    {
      "mode" : 3,
      "weights" : {

      },
      "top" : "barcode_se_dense2_sigmoid_output",
      "type" : "activation",
      "name" : "barcode_se_dense2_sigmoid",
      "bottom" : "barcode_se_dense2_bn_output"
    },
    {
      "alpha" : 1,
      "bottom" : "barcode_add_output,barcode_se_dense2_sigmoid_output",
      "operation" : 1,
      "weights" : {

      },
      "fused_relu" : 0,
      "top" : "barcode_se_multiply_output",
      "type" : "elementwise",
      "name" : "barcode_se_multiply",
      "beta" : 0
    },
    {
      "pad_value" : 0,
      "average_count_exclude_padding" : 1,
      "top_shape_style" : 0,
      "avg_or_max" : 1,
      "stride_x" : 2,
      "pad_mode" : 2,
      "stride_y" : 2,
      "pad_t" : 0,
      "weights" : {

      },
      "size_y" : 2,
      "type" : "pool",
      "pad_r" : 0,
      "pad_b" : 0,
      "size_x" : 2,
      "pad_fill_mode" : 0,
      "bottom" : "barcode_se_multiply_output",
      "pad_l" : 0,
      "name" : "hourglass_pool1",
      "top" : "hourglass_pool1_output"
    },
    {
      "pad_r" : 0,
      "fused_relu" : 1,
      "fused_tanh" : 0,
      "pad_fill_mode" : 0,
      "pad_b" : 0,
      "pad_l" : 0,
      "top" : "hourglass_2x_dw_relu_output_relu",
      "blob_weights" : 39,
      "K" : 16,
      "blob_biases" : 37,
      "name" : "hourglass_2x_dw_conv",
      "has_batch_norm" : 0,
      "type" : "convolution",
      "n_groups" : 16,
      "pad_t" : 0,
      "has_biases" : 1,
      "C" : 16,
      "bottom" : "hourglass_pool1_output",
      "weights" : {

      },
      "pad_mode" : 1,
      "Nx" : 3,
      "pad_value" : 0,
      "Ny" : 3,
      "n_parallel" : 1
    },
    {
      "alpha" : -1,
      "bottom" : "hourglass_2x_dw_relu_output_relu",
      "weights" : {

      },
      "mode" : 6,
      "top" : "hourglass_2x_dw_relu_output_relu_neg",
      "type" : "activation",
      "name" : "hourglass_2x_dw_relu__neg__",
      "beta" : 0
    },
    {
      "alpha" : -6,
      "bottom" : "hourglass_2x_dw_relu_output_relu_neg",
      "operation" : 25,
      "weights" : {

      },
      "fused_relu" : 0,
      "top" : "hourglass_2x_dw_relu_output_relu_clip",
      "type" : "elementwise",
      "name" : "hourglass_2x_dw_relu__clip__",
      "beta" : 0
    },
    {
      "alpha" : -1,
      "bottom" : "hourglass_2x_dw_relu_output_relu_clip",
      "weights" : {

      },
      "mode" : 6,
      "top" : "hourglass_2x_dw_relu_output",
      "type" : "activation",
      "name" : "hourglass_2x_dw_relu_neg2",
      "beta" : 0
    },
    {
      "pad_r" : 0,
      "fused_relu" : 1,
      "fused_tanh" : 0,
      "pad_fill_mode" : 0,
      "pad_b" : 0,
      "pad_l" : 0,
      "top" : "hourglass_2x_pw_relu_output_relu",
      "blob_weights" : 43,
      "K" : 16,
      "blob_biases" : 41,
      "name" : "hourglass_2x_pw_conv",
      "has_batch_norm" : 0,
      "type" : "convolution",
      "n_groups" : 1,
      "pad_t" : 0,
      "has_biases" : 1,
      "C" : 16,
      "bottom" : "hourglass_2x_dw_relu_output",
      "weights" : {

      },
      "pad_mode" : 0,
      "Nx" : 1,
      "pad_value" : 0,
      "Ny" : 1,
      "n_parallel" : 1
    },
    {
      "alpha" : -1,
      "bottom" : "hourglass_2x_pw_relu_output_relu",
      "weights" : {

      },
      "mode" : 6,
      "top" : "hourglass_2x_pw_relu_output_relu_neg",
      "type" : "activation",
      "name" : "hourglass_2x_pw_relu__neg__",
      "beta" : 0
    },
    {
      "alpha" : -6,
      "bottom" : "hourglass_2x_pw_relu_output_relu_neg",
      "operation" : 25,
      "weights" : {

      },
      "fused_relu" : 0,
      "top" : "hourglass_2x_pw_relu_output_relu_clip",
      "type" : "elementwise",
      "name" : "hourglass_2x_pw_relu__clip__",
      "beta" : 0
    },
    {
      "alpha" : -1,
      "bottom" : "hourglass_2x_pw_relu_output_relu_clip",
      "weights" : {

      },
      "mode" : 6,
      "top" : "hourglass_2x_pw_relu_output",
      "type" : "activation",
      "name" : "hourglass_2x_pw_relu_neg2",
      "beta" : 0
    },
    {
      "pad_value" : 0,
      "average_count_exclude_padding" : 1,
      "top_shape_style" : 0,
      "avg_or_max" : 1,
      "stride_x" : 2,
      "pad_mode" : 2,
      "stride_y" : 2,
      "pad_t" : 0,
      "weights" : {

      },
      "size_y" : 2,
      "type" : "pool",
      "pad_r" : 0,
      "pad_b" : 0,
      "size_x" : 2,
      "pad_fill_mode" : 0,
      "bottom" : "hourglass_2x_pw_relu_output",
      "pad_l" : 0,
      "name" : "hourglass_pool2",
      "top" : "hourglass_pool2_output"
    },
    {
      "pad_r" : 0,
      "fused_relu" : 1,
      "fused_tanh" : 0,
      "pad_fill_mode" : 0,
      "pad_b" : 0,
      "pad_l" : 0,
      "top" : "hourglass_4x_dw_relu_output_relu",
      "blob_weights" : 47,
      "K" : 16,
      "blob_biases" : 45,
      "name" : "hourglass_4x_dw_conv",
      "has_batch_norm" : 0,
      "type" : "convolution",
      "n_groups" : 16,
      "pad_t" : 0,
      "has_biases" : 1,
      "C" : 16,
      "bottom" : "hourglass_pool2_output",
      "weights" : {

      },
      "pad_mode" : 1,
      "Nx" : 3,
      "pad_value" : 0,
      "Ny" : 3,
      "n_parallel" : 1
    },
    {
      "alpha" : -1,
      "bottom" : "hourglass_4x_dw_relu_output_relu",
      "weights" : {

      },
      "mode" : 6,
      "top" : "hourglass_4x_dw_relu_output_relu_neg",
      "type" : "activation",
      "name" : "hourglass_4x_dw_relu__neg__",
      "beta" : 0
    },
    {
      "alpha" : -6,
      "bottom" : "hourglass_4x_dw_relu_output_relu_neg",
      "operation" : 25,
      "weights" : {

      },
      "fused_relu" : 0,
      "top" : "hourglass_4x_dw_relu_output_relu_clip",
      "type" : "elementwise",
      "name" : "hourglass_4x_dw_relu__clip__",
      "beta" : 0
    },
    {
      "alpha" : -1,
      "bottom" : "hourglass_4x_dw_relu_output_relu_clip",
      "weights" : {

      },
      "mode" : 6,
      "top" : "hourglass_4x_dw_relu_output",
      "type" : "activation",
      "name" : "hourglass_4x_dw_relu_neg2",
      "beta" : 0
    },
    {
      "pad_r" : 0,
      "fused_relu" : 1,
      "fused_tanh" : 0,
      "pad_fill_mode" : 0,
      "pad_b" : 0,
      "pad_l" : 0,
      "top" : "hourglass_2x_compress_pw_relu_output_relu",
      "blob_weights" : 51,
      "K" : 16,
      "blob_biases" : 49,
      "name" : "hourglass_2x_compress_pw_conv",
      "has_batch_norm" : 0,
      "type" : "convolution",
      "n_groups" : 1,
      "pad_t" : 0,
      "has_biases" : 1,
      "C" : 4,
      "bottom" : "hourglass_2x_pw_relu_output",
      "weights" : {

      },
      "pad_mode" : 0,
      "Nx" : 1,
      "pad_value" : 0,
      "Ny" : 1,
      "n_parallel" : 1
    },
    {
      "pad_r" : 0,
      "fused_relu" : 1,
      "fused_tanh" : 0,
      "pad_fill_mode" : 0,
      "pad_b" : 0,
      "pad_l" : 0,
      "top" : "hourglass_4x_pw_relu_output_relu",
      "blob_weights" : 55,
      "K" : 16,
      "blob_biases" : 53,
      "name" : "hourglass_4x_pw_conv",
      "has_batch_norm" : 0,
      "type" : "convolution",
      "n_groups" : 1,
      "pad_t" : 0,
      "has_biases" : 1,
      "C" : 4,
      "bottom" : "hourglass_4x_dw_relu_output",
      "weights" : {

      },
      "pad_mode" : 0,
      "Nx" : 1,
      "pad_value" : 0,
      "Ny" : 1,
      "n_parallel" : 1
    },
    {
      "alpha" : -1,
      "bottom" : "hourglass_2x_compress_pw_relu_output_relu",
      "weights" : {

      },
      "mode" : 6,
      "top" : "hourglass_2x_compress_pw_relu_output_relu_neg",
      "type" : "activation",
      "name" : "hourglass_2x_compress_pw_relu__neg__",
      "beta" : 0
    },
    {
      "alpha" : -6,
      "bottom" : "hourglass_2x_compress_pw_relu_output_relu_neg",
      "operation" : 25,
      "weights" : {

      },
      "fused_relu" : 0,
      "top" : "hourglass_2x_compress_pw_relu_output_relu_clip",
      "type" : "elementwise",
      "name" : "hourglass_2x_compress_pw_relu__clip__",
      "beta" : 0
    },
    {
      "alpha" : -1,
      "bottom" : "hourglass_2x_compress_pw_relu_output_relu_clip",
      "weights" : {

      },
      "mode" : 6,
      "top" : "hourglass_2x_compress_pw_relu_output",
      "type" : "activation",
      "name" : "hourglass_2x_compress_pw_relu_neg2",
      "beta" : 0
    },
    {
      "alpha" : -1,
      "bottom" : "hourglass_4x_pw_relu_output_relu",
      "weights" : {

      },
      "mode" : 6,
      "top" : "hourglass_4x_pw_relu_output_relu_neg",
      "type" : "activation",
      "name" : "hourglass_4x_pw_relu__neg__",
      "beta" : 0
    },
    {
      "alpha" : -6,
      "bottom" : "hourglass_4x_pw_relu_output_relu_neg",
      "operation" : 25,
      "weights" : {

      },
      "fused_relu" : 0,
      "top" : "hourglass_4x_pw_relu_output_relu_clip",
      "type" : "elementwise",
      "name" : "hourglass_4x_pw_relu__clip__",
      "beta" : 0
    },
    {
      "alpha" : -1,
      "bottom" : "hourglass_4x_pw_relu_output_relu_clip",
      "weights" : {

      },
      "mode" : 6,
      "top" : "hourglass_4x_pw_relu_output",
      "type" : "activation",
      "name" : "hourglass_4x_pw_relu_neg2",
      "beta" : 0
    },
    {
      "bottom" : "hourglass_2x_compress_pw_relu_output",
      "scaling_factor_y" : 2,
      "weights" : {

      },
      "mode" : 1,
      "top" : "hourglass_up2_output",
      "scaling_factor_x" : 2,
      "type" : "upsample",
      "name" : "hourglass_up2"
    },
    {
      "bottom" : "hourglass_4x_pw_relu_output",
      "scaling_factor_y" : 4,
      "weights" : {

      },
      "mode" : 1,
      "top" : "hourglass_up1_output",
      "scaling_factor_x" : 4,
      "type" : "upsample",
      "name" : "hourglass_up1"
    },
    {
      "weights" : {

      },
      "top" : "hourglass_concat1_output",
      "type" : "concat",
      "name" : "hourglass_concat1",
      "bottom" : "hourglass_up2_output,hourglass_up1_output"
    },
    {
      "pad_r" : 0,
      "fused_relu" : 1,
      "fused_tanh" : 0,
      "pad_fill_mode" : 0,
      "pad_b" : 0,
      "pad_l" : 0,
      "top" : "hourglass_relax_pw_relu_output_relu",
      "blob_weights" : 59,
      "K" : 8,
      "blob_biases" : 57,
      "name" : "hourglass_relax_pw_conv",
      "has_batch_norm" : 0,
      "type" : "convolution",
      "n_groups" : 1,
      "pad_t" : 0,
      "has_biases" : 1,
      "C" : 1,
      "bottom" : "hourglass_concat1_output",
      "weights" : {

      },
      "pad_mode" : 0,
      "Nx" : 1,
      "pad_value" : 0,
      "Ny" : 1,
      "n_parallel" : 1
    },
    {
      "alpha" : -1,
      "bottom" : "hourglass_relax_pw_relu_output_relu",
      "weights" : {

      },
      "mode" : 6,
      "top" : "hourglass_relax_pw_relu_output_relu_neg",
      "type" : "activation",
      "name" : "hourglass_relax_pw_relu__neg__",
      "beta" : 0
    },
    {
      "alpha" : -6,
      "bottom" : "hourglass_relax_pw_relu_output_relu_neg",
      "operation" : 25,
      "weights" : {

      },
      "fused_relu" : 0,
      "top" : "hourglass_relax_pw_relu_output_relu_clip",
      "type" : "elementwise",
      "name" : "hourglass_relax_pw_relu__clip__",
      "beta" : 0
    },
    {
      "alpha" : -1,
      "bottom" : "hourglass_relax_pw_relu_output_relu_clip",
      "weights" : {

      },
      "mode" : 6,
      "top" : "hourglass_relax_pw_relu_output",
      "type" : "activation",
      "name" : "hourglass_relax_pw_relu_neg2",
      "beta" : 0
    },
    {
      "weights" : {

      },
      "top" : "hourglass_concat2_output",
      "type" : "concat",
      "name" : "hourglass_concat2",
      "bottom" : "barcode_se_multiply_output,hourglass_relax_pw_relu_output"
    },
    {
      "pad_r" : 0,
      "fused_relu" : 0,
      "fused_tanh" : 0,
      "pad_fill_mode" : 0,
      "pad_b" : 0,
      "pad_l" : 0,
      "top" : "classifier_bn_output",
      "blob_weights" : 63,
      "K" : 17,
      "blob_biases" : 61,
      "name" : "classifier_conv",
      "has_batch_norm" : 0,
      "type" : "convolution",
      "n_groups" : 1,
      "pad_t" : 0,
      "has_biases" : 1,
      "C" : 1,
      "bottom" : "hourglass_concat2_output",
      "weights" : {

      },
      "pad_mode" : 1,
      "Nx" : 3,
      "pad_value" : 0,
      "Ny" : 3,
      "n_parallel" : 1
    },
    {
      "mode" : 3,
      "weights" : {

      },
      "top" : "output1",
      "type" : "activation",
      "name" : "classifier_sigmoid",
      "bottom" : "classifier_bn_output"
    }
  ]
}